…
       Horse       0.86      0.96      0.90       233
         Dog       0.97      0.81      0.88        80
         Cow       0.91      0.85      0.88       190

    accuracy                           0.89       503
   macro avg       0.91      0.87      0.89       503
weighted avg       0.90      0.89      0.89       503

Test Accuracy Model 2
0.8926441073417664
Model: "sequential"
_________________________________________________________________
 Layer (type)                Output Shape              Param #   
=================================================================
 conv2d (Conv2D)             (None, 16, 65, 32)        320       
                                                                 
 max_pooling2d (MaxPooling2D  (None, 8, 32, 32)        0         
 )                                                               
                                                                 
 conv2d_1 (Conv2D)           (None, 6, 30, 64)         18496     
                                                                 
 max_pooling2d_1 (MaxPooling  (None, 3, 15, 64)        0         
 2D)                                                             
                                                                 
 flatten (Flatten)           (None, 2880)              0         
                                                                 
 dense (Dense)               (None, 128)               368768    
                                                                 
 dropout (Dropout)           (None, 128)               0         
                                                                 
 dense_1 (Dense)             (None, 3)                 387       
                                                                 
=================================================================
Total params: 387,971
Trainable params: 387,971
Non-trainable params: 0
_________________________________________________________________
None
