…
       Human       0.96      0.95      0.95       533
      Animal       0.95      0.95      0.95       506

    accuracy                           0.95      1039
   macro avg       0.95      0.95      0.95      1039
weighted avg       0.95      0.95      0.95      1039

Test Accuracy CNN Model 1
0.9538017511367798
Train Accuracy CNN Model 1
0.9874879717826843
Model: "sequential"
_________________________________________________________________
 Layer (type)                Output Shape              Param #   
=================================================================
 conv2d (Conv2D)             (None, 254, 622, 32)      320       
                                                                 
 max_pooling2d (MaxPooling2D  (None, 127, 311, 32)     0         
 )                                                               
                                                                 
 conv2d_1 (Conv2D)           (None, 125, 309, 64)      18496     
                                                                 
 max_pooling2d_1 (MaxPooling  (None, 62, 154, 64)      0         
 2D)                                                             
                                                                 
 flatten (Flatten)           (None, 611072)            0         
                                                                 
 dense (Dense)               (None, 128)               78217344  
                                                                 
 dropout (Dropout)           (None, 128)               0         
                                                                 
 dense_1 (Dense)             (None, 2)                 258       
                                                                 
=================================================================
Total params: 78,236,418
Trainable params: 78,236,418
Non-trainable params: 0
_________________________________________________________________
None


=====================================================================================================


Adding 1 to labels
…
