…
                Horse       0.98      0.99      0.98       233
                  Dog       0.96      1.00      0.98        76
                  Cow       0.96      0.98      0.97       196

             accuracy                           0.97       513
            macro avg       0.73      0.74      0.73       513
         weighted avg       0.96      0.97      0.96       513

Model 2 Summary
Model: "sequential"
_________________________________________________________________
 Layer (type)                Output Shape              Param #   
=================================================================
 conv2d (Conv2D)             (None, 254, 622, 32)      320       
                                                                 
 max_pooling2d (MaxPooling2D  (None, 127, 311, 32)     0         
 )                                                               
                                                                 
 conv2d_1 (Conv2D)           (None, 125, 309, 64)      18496     
                                                                 
 max_pooling2d_1 (MaxPooling  (None, 62, 154, 64)      0         
 2D)                                                             
                                                                 
 flatten (Flatten)           (None, 611072)            0         
                                                                 
 dense (Dense)               (None, 128)               78217344  
                                                                 
 dropout (Dropout)           (None, 128)               0         
                                                                 
 dense_1 (Dense)             (None, 3)                 387       
                                                                 
=================================================================
Total params: 78,236,547
Trainable params: 78,236,547
Non-trainable params: 0
_________________________________________________________________
None
