…
       Horse       0.97      0.93      0.95       233
         Dog       0.87      0.92      0.89        77
         Cow       0.94      0.95      0.94       196

    accuracy                           0.96      1039
   macro avg       0.94      0.95      0.94      1039
weighted avg       0.96      0.96      0.96      1039

Test Accuracy Model 2
0.9605389833450317
Train Accuracy Model 2
1.0
Model: "sequential"
_________________________________________________________________
 Layer (type)                Output Shape              Param #   
=================================================================
 conv2d (Conv2D)             (None, 254, 622, 32)      320       
                                                                 
 max_pooling2d (MaxPooling2D  (None, 127, 311, 32)     0         
 )                                                               
                                                                 
 conv2d_1 (Conv2D)           (None, 125, 309, 64)      18496     
                                                                 
 max_pooling2d_1 (MaxPooling  (None, 62, 154, 64)      0         
 2D)                                                             
                                                                 
 flatten (Flatten)           (None, 611072)            0         
                                                                 
 dense (Dense)               (None, 128)               78217344  
                                                                 
 dropout (Dropout)           (None, 128)               0         
                                                                 
 dense_1 (Dense)             (None, 4)                 516       
                                                                 
=================================================================
Total params: 78,236,676
Trainable params: 78,236,676
Non-trainable params: 0
_________________________________________________________________
None
