…
       Horse       0.95      0.92      0.94       224
         Dog       0.87      0.82      0.84        87
         Cow       0.83      0.95      0.89       205

    accuracy                           0.93      1039
   macro avg       0.91      0.91      0.91      1039
weighted avg       0.93      0.93      0.93      1039

Test Accuracy Model 2
0.9307026267051697
Model: "sequential"
_________________________________________________________________
 Layer (type)                Output Shape              Param #   
=================================================================
 conv2d (Conv2D)             (None, 36, 69, 32)        320       
                                                                 
 max_pooling2d (MaxPooling2D  (None, 18, 34, 32)       0         
 )                                                               
                                                                 
 conv2d_1 (Conv2D)           (None, 16, 32, 64)        18496     
                                                                 
 max_pooling2d_1 (MaxPooling  (None, 8, 16, 64)        0         
 2D)                                                             
                                                                 
 flatten (Flatten)           (None, 8192)              0         
                                                                 
 dense (Dense)               (None, 128)               1048704   
                                                                 
 dropout (Dropout)           (None, 128)               0         
                                                                 
 dense_1 (Dense)             (None, 4)                 516       
                                                                 
=================================================================
Total params: 1,068,036
Trainable params: 1,068,036
Non-trainable params: 0
_________________________________________________________________
None
